android/app/src/main/assets/models/archive/Juniper.tflite (tflite, 206976 bytes, 9 tensors)

arith.constant f4 [1, 32]
000000 c5 af 33 bd cd 04 2b 3e 2e 23 aa 3d 26 c8 de ba
       -0.0438688 0.1670105 0.08307491 -0.0016996905
000010 bd 52 1a 3e 12 16 a6 be 33 b6 99 3d 1c 82 4f 3e
       0.15070625 -0.32438713 0.07505455 0.20264477
000020 aa 32 08 3e de 77 53 bc 50 3b 21 bd 6e 51 b2 be
       0.13300577 -0.0129069965 -0.039363205 -0.3482775
000030 ea 87 fd 3d ac 12 94 be e1 f0 b9 be 28 59 34 3e
       0.12379439 -0.28920496 -0.3631659 0.17612135
000040 27 48 ae be bc c8 9f be 62 9b 0c bd 3e b3 a8 be
       -0.34039423 -0.31207836 -0.034327872 -0.3294925
000050 62 db b4 be 36 7d ab be 09 c8 c8 3b f7 57 48 3e
       -0.35323626 -0.33493966 0.0061273617 0.19564806
000060 6e 2a f0 3c 9d 25 be 3d 19 d8 18 3e 64 50 a4 be
       0.029317107 0.09284518 0.14926185 -0.32092583
000070 b9 e8 a8 3d 88 7c fa bd e7 99 4f 3e 57 3e 2f bc
       0.08247513 -0.12230784 0.20273553 -0.010696015

arith.constant1 f4 [32, 32]
000000 78 a1 a8 3d 4e bd 0e 3e 01 e2 a8 3b 11 23 91 3d
       0.08233923 0.13939402 0.005153895 0.070867665
000010 80 5c ee 3d 9f d8 0e 3e 4a da 57 bd 7c 24 16 3e
       0.11638737 0.13949822 -0.05269841 0.14662355
000020 bd d7 eb bd 2f 9f 10 be 72 87 2c be ed 2b 01 3c
       -0.11515758 -0.14123224 -0.16848543 0.007884008
000030 72 d6 c8 3b e6 6c 26 bd b9 59 13 3d 82 c8 70 3d
       0.0061290795 -0.040631197 0.035974238 0.05878497
000040 ec e2 10 be dc 52 c3 3c 9d 10 37 3d 7a a9 e7 bc
       -0.14149064 0.023843221 0.044693578 -0.028279055
000050 29 f8 f7 3d 71 6c 09 3e dd a4 97 bc 57 d6 b0 3d
       0.1210788 0.13420273 -0.01851123 0.08634632
000060 d2 f5 ff bd 40 4d 01 be 3c 9a bc bd 22 25 e9 3d
       -0.124980584 -0.12627125 -0.09209105 0.11384036
000070 ca 42 b8 bd ff 31 7c 3d 17 0f 9b bd 66 3d 0f 3e
       -0.08997114 0.061571117 -0.075712375 0.13988265
000080 a1 36 a9 3c 9d e1 5b 3d 00 4a 44 bc e3 1e e6 bd
       0.020655932 0.05368196 -0.011980534 -0.1123636
000090 10 15 9b bd 87 e8 c7 3d 57 09 af bd 50 ec 96 bd
       -0.07572377 0.09761148 -0.08546703 -0.07369292
0000a0 da a7 13 bd 6d 2e 42 be 8f 25 10 3d bf f8 4a 3b
       -0.036048748 -0.18963023 0.03519207 0.0030971018
0000b0 4b 09 0e 3e b0 e6 eb bc b4 37 23 3e 4d 14 e3 3d
       0.13870732 -0.028796524 0.15939218 0.110878564
0000c0 9a e3 06 be f0 36 36 3e 8a b7 2c be 28 d7 c2 3d
       -0.1317276 0.17794394 -0.1686689 0.09513694
0000d0 6b 4c 25 3e fd c0 1b 3e 9f 5d 2f 3e c2 95 41 bd
       0.16142432 0.15210338 0.17125557 -0.04726196
0000e0 d5 da 2a 3e 8b a9 60 bc 4b fd 9b bd e0 08 87 bc
       0.1668504 -0.013712297 -0.07616671 -0.016483724
0000f0 8c 26 2a 3e 20 18 26 3e 3a 51 31 3e ba 36 4a 3d
       0.16616267 0.1622014 0.17316142 0.049368598
000100 fa b7 3c 3c 3d 24 a2 bd 93 18 e9 3d 1e de 2d 3c
       0.011518473 -0.07917068 0.1138164 0.010612039
000110 cf bd 10 bd a6 95 35 bd 2b 79 c2 bd cc db ea bb
       -0.035337266 -0.04433217 -0.09495767 -0.007167315
000120 b5 ee 15 be db df b4 bd d3 be e2 3d 44 f5 40 3d
       -0.14641841 -0.088317595 0.11071553 0.047108904
000130 d9 1c d8 bd 24 f5 a0 bd 89 bd 1e 3d 5f 1b f0 bd
       -0.10552377 -0.07859257 0.038754974 -0.117239706
000140 f1 09 e8 bd 72 fb ec bd ef 1b 42 bd bd 9f 22 bd
       -0.11330021 -0.11571397 -0.04738992 -0.03970312
000150 75 d1 5f 3d d1 ac 8e 3d 5f 53 fd 3c d5 1d 64 3d
       0.054643113 0.06966556 0.030923543 0.055692513
000160 64 f4 2f 3e e8 e6 21 3e 5d 66 ce 3d 4c dd 1a bd
       0.17183071 0.1581074 0.10078118 -0.0378087
000170 57 02 2e 3d 2a 99 06 be 75 6c 44 bd 52 b8 59 3d
       0.0424827 -0.13144365 -0.047954995 0.053154297
000180 92 da 00 be 04 46 06 be 57 ca e1 bd a3 c7 79 3d
       -0.12583378 -0.13112646 -0.110249214 0.060981404
000190 39 6b e8 3c 59 d3 ef bd df bf 0c be 43 88 90 3c
       0.02837144 -0.11710233 -0.13745068 0.0176431
0001a0 19 7e 54 bd 36 63 a8 3c c2 72 eb 3d 07 35 14 3e
       -0.05187807 0.02055512 0.11496498 0.14473353
0001b0 3c b0 ee bd 7e 16 d9 bd 8c a0 c1 3c 28 8c f5 bd
       -0.11654708 -0.10599993 0.023636125 -0.11989623
0001c0 e9 ab 07 be 3b 2f 06 be 61 08 df bd 60 4e ae bd
       -0.13249172 -0.13103954 -0.1089027 -0.085110426
0001d0 f1 54 0c 3e dd 25 5b 3d ed db ca 3d f5 93 d5 3d
       0.13704278 0.053502906 0.09905229 0.10428611
0001e0 49 cf 1b 3c 4e b7 15 bd e1 4a fc 3d 56 87 8d bd
       0.00950987 -0.036551766 0.123189695 -0.06910579
0001f0 62 6c 11 3e 9c eb cc bd 3f 4f 8d bd 7d bb 2d 3d
       0.14201501 -0.100058764 -0.068998806 0.04241513
000200 c5 bd 85 3c 2e 9e 03 be a2 96 b0 3c fe 05 92 3d
       0.01632584 -0.1285331 0.021556202 0.07130049
000210 f9 0d c2 3c 11 a3 63 3c 54 3a 1f bc 3a fe 3c 3e
       0.023688303 0.0138938585 -0.009718496 0.18456355
000220 40 ce aa bd 9f d0 0d be d4 47 4d bd af 47 0c bd
       -0.0834012 -0.13849114 -0.05011733 -0.03424805
000230 0a 0c c1 39 6c 69 13 bc 88 22 3c 3e d6 0a 6f 3c
       0.00036820798 -0.0089973025 0.18372548 0.014589986
000240 10 5b 9e 3d e5 cf cc 3d 3d 50 8c 3d e7 0b 95 3a
       0.077322125 0.1000059 0.06851242 0.0011371345
000250 9d 90 2c 3d c4 60 11 3e 6e ee 02 3e e7 49 02 3e
       0.0421301 0.1419707 0.12786266 0.12723504
000260 ca 44 3b b9 63 66 24 3e 17 ad 37 bc cf 50 b8 bd
       -0.00017859336 0.16054682 -0.011210701 -0.08999788
000270 6e 49 4b bd 57 71 2a be 58 ea 4d 3e 2c 88 d3 3d
       -0.049630575 -0.16644798 0.20108926 0.10328707
000280 d6 59 8f 3d cf 01 f6 bc d5 a1 00 3e 59 a6 5c bd
       0.06999557 -0.03003016 0.12561734 -0.05386958
000290 9b 93 ba 3c d9 ff 3c 3e c4 43 1a be 09 44 2d 3e
       0.022775462 0.18456973 -0.15064913 0.16920485
0002a0 f1 7d 2d bd 5c 94 31 3d 23 9c 8b bd 6f 59 99 bd
       -0.042356435 0.043354377 -0.0681689 -0.07487761
0002b0 24 49 42 3e 15 52 53 be de f7 07 b9 34 68 74 3d
       0.18973213 -0.2063678 -0.00012966941 0.05966969
0002c0 e9 f0 ac bd bd 2d 68 bd cc ed f9 3c e1 52 9c 3d
       -0.084443875 -0.056684244 0.030508898 0.076329954
0002d0 9a 9c 1e 3e 28 ef eb 3d 06 c7 be bd df fb 01 be
       0.15489426 0.11520225 -0.093153045 -0.12693737
0002e0 be 2c 0c be e3 22 75 bc 98 98 5c bd 4c 2f 19 be
       -0.13688943 -0.014961931 -0.053856462 -0.14959449
0002f0 69 d9 0a be 11 f3 00 bd d1 04 54 3d 37 46 a9 3c
       -0.13559498 -0.031481806 0.051762406 0.020663364
000300 63 f9 e9 bd 31 27 04 be d3 00 85 bd cb 9e eb 3d
       -0.1142452 -0.12905575 -0.06494298 0.11504897
000310 df d6 c1 bd 40 ae 12 be 66 23 75 bd 45 0e 87 bd
       -0.094648115 -0.14324284 -0.05984821 -0.065945186
000320 f9 68 d8 bd 8a 92 25 3d ef 70 02 3e 8d 2a 19 3e
       -0.10566897 0.040422954 0.12738393 0.14957638
000330 54 c6 0e 3e 23 81 d8 3d 56 81 40 bb 5e 1b 01 3c
       0.13942844 0.10571506 -0.0029373965 0.00788006
000340 e7 df 02 bd ed d2 0e 3e 1f 62 5c 3d d4 98 16 3e
       -0.03195181 0.1394765 0.053804513 0.14706737
000350 34 22 1e be e6 e9 59 bd d4 16 b4 3d 12 e0 63 3d
       -0.15442735 -0.05320158 0.087934166 0.055633612
000360 4b f8 43 bd 09 66 dd 3b 3f d4 10 3d 96 bd a9 3d
       -0.047844213 0.0067565483 0.035358664 0.08288114
000370 23 45 5f bd dc 5c dd bd cd e4 2e 3e 85 e9 4b bd
       -0.054509293 -0.10808727 0.17079468 -0.04978325
000380 b0 3f 10 be 82 1b 11 be e3 88 d9 bd da 44 ce 3c
       -0.14086795 -0.1417065 -0.10621812 0.025179315
000390 03 63 3e 3d 34 9b 0c 3d f9 92 19 be 34 65 10 3e
       0.046481144 0.0343277 -0.14997472 0.14101106
0003a0 94 a9 ba 3d cd 5e 1f 3e 93 d0 29 be 67 5d dd bc
       0.09114376 0.15563507 -0.16583471 -0.027022077
0003b0 50 66 09 be 4f 6c 1c 3b b5 b0 87 bc 8f b9 1f 3e
       -0.13417935 0.0023868268 -0.016563753 0.15598129
0003c0 ff 65 6d bd 89 58 34 3e f0 f2 84 3c d0 3c f7 bc
       -0.0579586 0.17611898 0.016229123 -0.030180365
0003d0 93 20 2a bd 29 bd 3c 3e f3 73 0c 3e b7 03 32 3e
       -0.04153497 0.18431534 0.13716106 0.1738423
0003e0 50 b7 9d 3d ae 9b c4 3d 87 c4 3f be 9d 1e 3c bd
       0.0770098 0.09600006 -0.18727313 -0.045927633
0003f0 81 6a ce 3d 19 c0 d0 3d fe 53 30 bd cb 55 03 be
       0.10078908 0.1019289 -0.04304885 -0.12825696

arith.constant2 f4 [32, 1536]
000000 f2 9e 7c 3b c4 c7 10 bc 49 2f 04 bc 7a fa 86 3c
       0.0038546887 -0.00883669 -0.008067914 0.016476858
000010 19 52 2b 3c 7e 4a f6 3c 73 38 29 3c 0f ad 7f bc
       0.010456585 0.030064818 0.0103284 -0.015605225
000020 9d 47 a7 3c 06 cd 03 bb 35 77 a0 bc ca ea 55 bb
       0.02041989 -0.0020111217 -0.019588092 -0.0032641166
000030 0a 62 3f 3c e5 77 74 3b 1b 2b 5d 3c 85 db 90 3c
       0.011681089 0.0037302908 0.013499047 0.0176828
000040 f1 9c 50 3c bc a3 be bc dd 97 2e 3b 8c 6a c3 bc
       0.01273273 -0.023271434 0.002664081 -0.023854516
000050 3c 7e 87 3c 3f 41 2b bb ca 2b c2 3b b4 bf 9d bb
       0.016539685 -0.002613142 0.00592563 -0.0048141126
000060 c6 61 d5 bb 0e 3f 6f bc 28 2c ff bc 75 d5 46 bc
       -0.0065118996 -0.014602436 -0.031148985 -0.012135853
000070 44 69 5e bc d8 60 38 3c 23 dd 7b bc 9e 89 12 3b
       -0.013574902 0.011253558 -0.015372547 0.0022359858
000080 30 c3 fd 3b 63 96 14 3d 05 ca 2e bb 5e 9c 66 3c
       0.0077442154 0.036276232 -0.0026670706 0.014075367
000090 de 5e 5a 3c a3 55 50 ba 0c 85 1f 3b 44 9a a8 3b
       0.013328282 -0.0007947331 0.0024340777 0.005145343
0000a0 6f 19 b0 bc 37 3e a3 bc 42 78 67 3b ab d1 cf 3b
       -0.021496503 -0.019927127 0.0035319482 0.006342133
0000b0 3a dd c7 3c 5f 74 81 bc 62 81 77 3c 0d af 0d bb
       0.024397481 -0.01580256 0.015106531 -0.002161923
0000c0 e5 d5 05 bb 29 de ad bc bf f5 a0 ba 34 53 4a bb
       -0.002042168 -0.021224098 -0.0012280269 -0.0030872347
0000d0 08 c2 52 3d d1 c1 1f bd 78 05 bb bc 53 77 aa 3c
       0.051454574 -0.039003197 -0.022829756 0.020808851
0000e0 ab bd 26 bc 78 57 6a 3b 01 03 1e bc f1 3f 18 bc
       -0.010177056 0.0035757702 -0.009644271 -0.009292589
0000f0 c6 9c 91 bc 5f e4 cc 3b 25 22 b9 bb 4f 84 05 3c
       -0.01777495 0.00625281 -0.0056498223 0.008149221
000100 33 af cf 3b a4 c2 c9 3c e0 ee 66 bc 64 3d 13 bc
       0.006338024 0.024628945 -0.014095038 -0.008986805
000110 2e 81 76 bc f8 a1 49 bc 6b 6c e4 bc 9e 0f 8b 3b
       -0.015045447 -0.012306683 -0.027883729 0.004243805
000120 89 aa 14 bd 97 45 e8 bc 33 3b b8 bc 07 06 0c 3c
       -0.036295447 -0.028353496 -0.022489166 0.008546359
000130 7f e7 73 bc 7d 74 0e 3c 16 f9 03 bc 7f 19 bb bc
       -0.014886736 0.008694765 -0.008054992 -0.022839306
000140 23 80 9c bc ef ae 30 3c bf 00 2a bb 21 c0 d3 bc
       -0.01910407 0.010783895 -0.0025940386 -0.02584845
000150 5e 02 69 3c b2 bd 7c ba 4f 4d 74 bc 25 b8 b5 3c
       0.014221756 -0.0009641304 -0.01491101 0.022182534
000160 de f3 9f 3b 92 cb 67 bc 8b 06 76 bc af 6f d9 3c
       0.004881366 -0.014147656 -0.015016208 0.026542513
000170 32 72 3c bc bf b6 4f bc d4 ee 3d bc a6 e9 c3 3c
       -0.011501836 -0.012677847 -0.011592586 0.023915123
000180 17 24 87 3c d4 21 76 3c 96 a1 af bc 7b 29 88 bc
       0.016496701 0.015022714 -0.021439355 -0.016621342
000190 db 54 87 3b a6 49 24 bb fa 5d 80 3c 9f 9e 4a bc
       0.0041299886 -0.0025068312 0.015669812 -0.01236692
0001a0 a4 f7 eb 3a d3 c5 b5 3c 21 9f 45 3c 90 39 a1 3b
       0.001800288 0.022189057 0.012061865 0.004920192
0001b0 a2 52 b3 ba 14 bd 1e 3c b6 e2 1c bc 84 5c a6 ba
       -0.0013681243 0.009688634 -0.0095755365 -0.0012692367
0001c0 d5 d6 9a 3c 68 cb cc 3c a2 28 49 bc 51 33 6a bc
       0.018901268 0.024999335 -0.012277754 -0.014294461
0001d0 5b 17 87 3b ec c7 b2 3b d5 e2 9e bc 23 1a cf ba
       0.0041226572 0.0054559615 -0.019395271 -0.0015800636
0001e0 6e dc f8 bb 40 12 92 bc 8b 5d ff bb 21 ad e8 3c
       -0.0075946366 -0.017830968 -0.0077931336 0.028402867
0001f0 d4 4a 77 bb ab 9a 4e 3b 73 d4 d8 ba 23 3e 23 3d
       -0.003773381 0.0031525295 -0.0016542807 0.03985418
000200 8d 50 9e bc 3d 83 83 3c b8 53 5e 3c e6 c8 a3 3b
       -0.019325519 0.01605379 0.013569765 0.004998314
000210 42 74 1d bb 87 57 54 3c 2f 4e 0a bb 26 a9 a0 3c
       -0.0024025594 0.012960321 -0.002110373 0.019611906
000220 13 7c 84 bb 2f 1a 40 bc ce 79 01 bc 7b 73 0f 3c
       -0.004043111 -0.011724993 -0.007902576 0.00875556
000230 e3 18 63 3b 2e f3 8c 3c c6 7b 3a bc aa a8 cd bc
       0.0034652285 0.0172058 -0.011382049 -0.02510484
000240 02 f2 02 3d 08 43 5c 3b ab 26 01 bd df 31 62 bc
       0.031969078 0.003360929 -0.031531017 -0.0138058355
000250 75 9f d5 3c ce 1f 0e bc f1 7b 81 bc 27 5b 1d 3c
       0.026077012 -0.008674575 -0.01580617 0.009604252
000260 30 6f 84 bc a6 6d f1 3b 34 4d ba bc c7 2f a5 3c
       -0.0161663 0.0073678074 -0.022741891 0.020164384
000270 a8 00 d7 bc 0d b6 9e 3c 1a 66 29 bc f0 62 d9 3b
       -0.02624543 0.019373918 -0.010339284 0.0066341087
000280 c6 79 2b 3c 01 4d 14 bc 56 62 8e bb 4c 90 82 bc
       0.010466045 -0.009051562 -0.0043452187 -0.015937947
000290 46 db 2b 3c e2 c2 44 3c fb b7 72 bc 7c 4a aa bb
       0.010489291 0.012009354 -0.014814372 -0.0051968675
0002a0 7f ef b0 bc de 78 e5 bb 27 ad 90 3b f6 bb 96 bc
       -0.021598576 -0.007002934 0.0044151726 -0.018400174
0002b0 b3 65 27 bc 29 98 ee b9 93 ad 77 bc 76 38 36 b9
       -0.010217118 -0.00045508266 -0.015117067 -0.00017377906
0002c0 26 c9 04 3d 92 3c 49 3c a2 a7 41 3b 9c 71 bf bc
       0.032418393 0.0122825075 0.002954938 -0.023369603
0002d0 d1 dd a5 3c 8f 81 0d bc 7c 8e 77 3c b4 4b 52 3c
       0.020247372 -0.008636846 0.0151096545 0.012835432
0002e0 26 f9 d9 ba 7d 7f ca bb a8 16 65 bc f5 69 cc 3b
       -0.0016630038 -0.0061797486 -0.013982452 0.006238217
0002f0 4b c5 9d 3c 49 c7 03 bd 42 b5 ed 3b 53 44 94 bc
       0.019259116 -0.032172475 0.0072542736 -0.018098986
000300 74 60 16 bc 4f fb cf 3c ac 5b 0c bc 2c 35 82 3b
       -0.00917827 0.025388388 -0.008566778 0.0039736237
000310 b6 a2 6e 3a c9 6a 83 3c 92 b2 df 3b 07 3c 1c 3c
       0.00091032253 0.01604213 0.006826707 0.009535796
000320 75 d9 e6 ba c6 f9 89 bb eb dc 37 3c e9 6b c5 bb
       -0.0017612415 -0.0042106835 0.011222105 -0.006024827
000330 08 54 f3 3c 66 64 69 bd 5c 9e 56 bc cf 37 51 bc
       0.029703155 -0.056980513 -0.013099279 -0.012769653
000340 3d 77 ac 3c 0a 32 0d 3d 89 50 fb 3a 6c e1 8b 3b
       0.021052951 0.03447155 0.0019173782 0.0042688157
000350 37 7b b0 bc 96 77 24 bc 80 72 43 3c 20 a3 dd 3c
       -0.021543128 -0.010038277 0.011929154 0.027055323
000360 63 37 ed bb 9a af ed bc 89 49 02 bc 8c ba 53 3d
       -0.0072392686 -0.029014397 -0.007952102 0.051691577
000370 e3 1e 0f bd 3f a7 07 3c bc ec fa 3b c7 9e 4c 3c
       -0.034941565 0.008279621 0.0076576155 0.012489027
000380 b0 c8 76 bc 97 eb 4a bc ff b8 e4 3c d0 8f df bc
       -0.015062496 -0.012385271 0.027920244 -0.027290255
000390 d8 bc e6 3b 57 5d 35 3b e1 f7 aa bc 4a f5 f8 3a
       0.007041555 0.0027674043 -0.020870151 0.0018994
0003a0 78 39 c4 bc 52 1d c6 ba c1 13 0f bc 1d a8 63 bc
       -0.023953184 -0.0015114939 -0.008732737 -0.013895062
0003b0 46 93 d2 3b bb 03 a2 3c 21 f9 55 ba bd ca ce 3b
       0.006426248 0.01977717 -0.0008162428 0.0063107894
0003c0 ac b4 05 3d a6 42 d0 bc 68 46 33 bc 21 f7 5d 3c
       0.032643005 -0.025422405 -0.010942079 0.01354769
0003d0 2f 56 b8 3c c3 d0 7d bc 67 85 4b 3c 62 7a 9d bb
       0.022502033 -0.015491667 0.012421942 -0.004805849
0003e0 bd 5c 1a 3b b6 1e 7a 3c 3c 0c d4 bc dc 68 d1 ba
       0.0023553811 0.015266111 -0.02588474 -0.0015976685
0003f0 92 f7 a3 bc ce ac 92 3c 51 20 84 bc c7 d1 0b 3d
       -0.020015512 0.017904665 -0.01612869 0.034135606

model_8/tf.__operators__.add/AddV2/y f4 [32]
000000 c4 10 c0 3c b4 94 5a 3c aa 1c 27 bc 84 02 b2 3c
       0.023445494 0.013341118 -0.010199705 0.021729715
000010 85 04 94 3c 79 03 87 3c 92 51 a8 bc f9 92 f6 3b
       0.018068561 0.016481148 -0.020546708 0.0075248447
000020 6a 9e 6b bc 74 61 97 bc 78 b1 57 3c c8 be b3 ba
       -0.014381031 -0.018479086 0.01316487 -0.0013713473
000030 4b ed c5 bc d2 b5 9e bc fc 22 9d bc 33 32 9d ba
       -0.024161002 -0.019373808 -0.01918172 -0.001199311
000040 b8 8b 9f 3c 3c d6 87 bc c4 1f 6b bc 00 3c c7 bc
       0.019475803 -0.016581647 -0.014350835 -0.024320602
000050 70 99 62 3c 7f 0f 77 3c 8e 96 09 bc 06 98 45 3b
       0.013830528 0.015079378 -0.008397711 0.0030150427
000060 fa 21 ba 3c 06 e0 31 3c 9e 9c 1c 3c 14 bd cb bc
       0.02272128 0.010856634 0.009558825 -0.024870433
000070 a3 95 49 bc ff 36 0d 3c 44 09 2e 3a 2d 79 25 3b
       -0.012303743 0.008619069 0.0006638954 0.0025249228

model_8/tf.__operators__.add_1/AddV2/y f4 [32]
000000 25 40 d4 bd f6 f3 1c be 91 fc 7d bd 21 81 02 be
       -0.10363797 -0.15327439 -0.062008444 -0.12744571
000010 20 81 17 bd b1 71 0a 3e a5 0e 3d bd 86 36 fa bd
       -0.036988378 0.13519932 -0.046156544 -0.12217431
000020 c3 ea df 3d 92 fb 29 be 52 80 32 be 12 98 1e 3e
       0.10933449 -0.16599873 -0.17431763 0.15487698
000030 2a 8e 3e bd 1b 66 03 3d 2f e2 00 3e ce 47 a1 bd
       -0.046522297 0.032079797 0.12586282 -0.07875024
000040 39 23 1b bd f8 42 14 bc 71 95 1d be 23 39 1d 3e
       -0.037875388 -0.00904917 -0.15389039 0.15353827
000050 07 29 a4 bc 84 8a 0a 3e 52 69 b4 bd f8 91 18 be
       -0.020039095 0.13529402 -0.08809151 -0.14899433
000060 2e cc c2 3d 24 9e ff 3d 3e 37 98 bc 8a 46 c8 bd
       0.095116004 0.12481335 -0.018581029 -0.09779079
000070 ae 11 cf 3d be d6 9a bd c7 1c 37 3e ac 4a 0e be
       0.10110794 -0.0756049 0.17882071 -0.13895673

model_8/tf.math.add_2/Add/y f4 [1, 32]
000000 ff 80 30 3b 69 0b 14 bd 45 ff dd bc 16 c4 2d 3c
       0.0026932356 -0.036143694 -0.027099261 0.010605833
000010 84 30 98 bc 56 ab b0 3c 0c 39 e2 bc eb 4b bb bc
       -0.018577822 0.021566074 -0.027615093 -0.022863349
000020 c1 23 f3 3b 12 c2 74 3c 1f 5a c2 ba 00 9e dd bc
       0.0074200337 0.014938848 -0.0014827884 -0.02705288
000030 f1 d7 fb bc 78 95 8a bb a8 b9 81 bc 8a 45 c1 bc
       -0.030742617 -0.004229244 -0.015835598 -0.02359273
000040 43 aa 0e bd 9e 52 16 ba f0 f0 9b bc e3 40 b7 bc
       -0.034830343 -0.0005734357 -0.019035786 -0.022369808
000050 e3 d3 c2 bc bf 8f 30 3b 84 57 8e bc 75 c1 ae bc
       -0.023782676 0.0026941148 -0.017375715 -0.021332482
000060 cd 7e 2d bc e1 1d 65 bc 8b 29 04 bc 44 fc b1 bc
       -0.010589314 -0.0139841745 -0.008066545 -0.021726735
000070 6d 53 78 3b 9b ce 82 bc 32 aa d3 bc c4 1e 2f 3c
       0.0037891523 -0.015967658 -0.025837991 0.010688487

model_8/tf.math.add_5/Add/y f4 [1, 32]
000000 76 9c 7d bd b5 1f b9 3c a4 23 06 bb 33 3c a1 bc
       -0.06191679 0.022598127 -0.002046802 -0.019682026
000010 08 c0 24 3d 55 c6 80 3e 1c c8 e9 3c f6 cf 17 3d
       0.040222198 0.25151315 0.028537802 0.03706356
000020 f9 44 7d 3d 7b b5 16 bd 3e c8 04 bc be c9 62 3e
       0.061833356 -0.036794167 -0.008104382 0.22147271
000030 1f c2 1c 3d 52 a6 80 3e 81 f7 63 3e df 94 dd 3c
       0.038271066 0.25126892 0.22262384 0.027048526
000040 c2 eb 8c 3e 50 30 81 3e 57 94 90 3c 03 81 67 3e
       0.2752362 0.25232172 0.017648859 0.22607808
000050 75 71 6d 3e 47 da 78 3e 1e 46 a3 bb 97 57 10 3d
       0.23187812 0.24302016 -0.004982724 0.035239782
000060 ba 6c 61 3b 94 2e 2c 3d 99 fc a9 3d dd e3 84 3e
       0.0034397081 0.042036608 0.08300132 0.25955096
000070 6f 3a 82 3c 90 c7 d4 bb 91 04 36 3d 2e 19 75 bb
       0.015897004 -0.0064935163 0.04443795 -0.0037399041

model_8/tf.math.multiply_10/Mul/y f4 [1, 32]
000000 c0 f4 7f 3f b9 f9 7b 3f 2a ad 77 3f df a7 74 3f
       0.99982834 0.9842792 0.967486 0.9556865
000010 b3 c9 7b 3f a8 6f 82 3f 9a c0 77 3f 06 c7 80 3f
       0.98354644 1.0190325 0.9677826 1.0060737
000020 21 6c 75 3f a8 9b 81 3f 0d d6 7c 3f 09 57 7b 3f
       0.95868117 1.0125628 0.98764116 0.9817968
000030 54 ac 73 3f e2 f3 83 3f 1c 44 7d 3f be bb 7b 3f
       0.95184827 1.0308802 0.9893205 0.98333347
000040 3b f0 7a 3f 49 66 83 3f 5e bf 7c 3f f1 ce 7c 3f
       0.9802281 1.026559 0.98729503 0.9875327
000050 2a 2a 7c 3f ae 20 7f 3f c4 ea 7e 3f c0 1c 7c 3f
       0.9850184 0.9965924 0.99576974 0.9848137
000060 ef f9 7d 3f 2a cf 7b 3f f7 87 78 3f ff 45 7d 3f
       0.99209493 0.9836298 0.97082466 0.9893493
000070 27 6b 81 3f 14 1e 7c 3f 1a 61 7c 3f 4b 40 7f 3f
       1.0110825 0.98483396 0.98585665 0.9970748

model_8/tf.math.multiply_22/Mul/y f4 [1, 32]
000000 a1 a5 71 3f c7 4a 85 3f 76 c8 80 3f ea 06 7c 3f
       0.94393355 1.0413445 1.0061176 0.9844805
000010 57 5b 89 3f 0f 20 a3 3f 70 03 84 3f 37 34 8c 3f
       1.0731 1.2744159 1.0313549 1.0953435
000020 48 44 8a 3f b7 89 78 3f 06 98 7c 3f 14 32 99 3f
       1.0802088 0.97085136 0.9866947 1.1968408
000030 08 c1 85 3f 15 79 a1 3f 4c 8e 9b 3f 32 cf 83 3f
       1.0449533 1.2615076 1.21528 1.0297606
000040 c5 eb ab 3f 08 e2 a2 3f 60 67 81 3f 59 58 9a 3f
       1.3431326 1.2725229 1.0109673 1.2058212
000050 17 10 9e 3f d5 26 a1 3f ac 5f 7f 3f 30 db 85 3f
       1.234866 1.2589976 0.9975536 1.0457516
000060 4b bf 81 3f 83 d5 87 3f fd 6c 8d 3f 73 1f a6 3f
       1.0136503 1.0612034 1.1048886 1.2978348
000070 35 23 83 3f ab 1d 7f 3f 1f 72 87 3f 35 a4 7f 3f
       1.0245119 0.99654645 1.0581702 0.99859935
