android/app/src/main/assets/models/juniper_v0.1.onnx (onnx, 206292 bytes, 9 tensors)

layer1.weight f4 [32, 1536]
-0.016053228 0.0011057302 -0.005431568 -0.015351415 -0.0057528107 -0.015923018 -0.022992382 -0.019462127
-0.0032344128 0.023854902 -0.008277647 -0.02879572 -0.009638969 -0.021445628 0.026777307 0.015828725
-0.003204293 -0.009377502 -0.02867301 -0.00056349667 0.011330838 -0.0046796016 0.005479814 -0.028211437
-0.013897832 -0.018983396 -0.018964166 -0.017451134 -0.014340719 -0.0034360795 0.009170213 -0.02184084
0.0064353733 0.0067603737 0.0031087745 -0.017075686 -0.003938304 0.003367657 0.0075463094 -0.0028665233
-0.027950915 0.01645164 0.012855344 0.02354719 0.011383689 0.01889449 0.022530198 -0.012955557
-0.010689829 0.01118295 0.017939817 -0.006791698 0.021776397 0.0033156397 0.024113111 0.01338808
0.01991321 0.0198453 0.014291027 -0.025882918 0.027096057 -0.029006628 0.013588209 -0.023368193
0.01713743 0.026091745 0.025732575 -0.021534681 0.008921128 0.008775056 -0.015584304 0.022201736
0.013399484 -0.0026486397 -0.012257745 -0.016773634 -0.0032053746 0.014679416 -0.0099585885 -0.007536512
-0.009194556 -0.027417833 0.0041221813 0.023953704 0.012354664 -0.0057022874 0.00031796357 -0.029984774
0.0051013343 -0.013003164 -0.00523303 -0.0040748366 -0.019476945 -0.015482706 -0.0077544735 -0.021210425
-0.014033079 0.0038775532 -0.030418217 -0.006339385 0.014878878 -0.013791579 0.0088713085 -0.026090013
0.0039894483 0.011706049 0.021189786 0.02315014 -0.005238774 -0.019167578 0.022904754 -0.016687706
-0.020808667 0.005213428 0.01912446 -0.020460585 -0.013251862 -0.008617232 0.003804755 0.006262233
-0.0066658165 -0.016696736 -0.0011647851 0.015919525 0.0028135565 -0.012927509 -0.0061906762 0.014418462
0.018290825 -0.011894462 -0.0011891775 0.0023799934 0.020261403 0.010804636 -0.02583252 0.023297679
-0.012069437 -0.020520546 -0.0014829874 -0.014947493 -0.009577681 -0.01785508 -0.007880453 -0.020679906
-0.0179 -0.011011053 -0.019625852 -0.023815393 -0.021235032 -0.0011871709 0.022995336 -0.0016762275
-0.008948052 0.009058555 0.007285395 0.01849176 0.020903775 0.004016569 -0.003812915 0.01750117
-0.023390947 -0.00044429165 0.0014125032 -0.0063575497 -0.026133498 0.015721837 -0.022562854 -0.0039796764
0.0058602514 0.008350271 0.0021395753 -0.018902352 0.026633432 -0.003605847 -0.014297013 0.0073881038
-0.015506563 0.015075349 -0.02248462 0.011993355 -0.016292445 -0.013754561 -0.022756826 -0.012843598
-0.015916066 0.02087843 0.00481745 -0.016720342 0.0036224013 -0.018668175 0.021015797 -0.01309178
0.014630578 -0.019514307 -5.134265e-05 0.0036831528 -0.011971852 -0.0006197506 -0.017848294 0.0028794922
-0.028202357 -0.0027417596 -0.021011762 4.437155e-05 0.019917142 -0.015255332 0.017282965 0.018253393
0.012541069 0.011816598 0.011713385 0.017136667 0.0010204806 0.011073106 -0.013805843 -0.035291668
0.019608784 -0.0037507778 0.0075928923 -0.0019275908 -0.020656003 0.017840303 -0.016836032 -0.000440191
0.013467777 0.014260959 -0.025436116 -0.017494703 0.016152248 0.0005903217 -0.019549413 0.010564947
0.013896766 -0.017081924 -0.018517798 0.0003662335 0.022617543 0.020294646 -0.020056326 0.007877608
0.020359209 -0.0025177607 -0.0042747944 -0.014570277 0.010106941 -0.008920185 -0.015372532 0.0099803405
0.024813488 -0.017326128 0.021839939 0.0062044878 -0.010115144 0.008588978 -0.010712035 -0.023047693
00000000: 0f82 83bc 26ee 903a 4bfb b1bb 8084 7bbc
00000010: 1382 bcbb fd70 82bc 855a bcbc 0a6f 9fbc
00000020: 71f8 53bb 5b6b c33c f89e 07bc 00e5 ebbc
00000030: c4ec 1dbc beae afbc 155c db3c 3eab 813c
00000040: 1eff 51bb 18a4 19bc a9e3 eabc 9fb7 13ba
00000050: fba4 393c 5857 99bb 0390 b33b ac1b e7bc
00000060: bbb3 63bc 1183 9bbc bd5a 9bbc aef5 8ebc
00000070: 56f5 6abc d92f 61bb a93e 163c 90eb b2bc
00000080: d3df d23b 2086 dd3b 95bc 4b3b 4fe2 8bbc
00000090: e30c 81bb e9b3 5c3b 0847 f73b 48dc 3bbb
000000a0: 51f9 e4bc 97c5 863c 399f 523c 09e6 c03c
000000b0: a782 3a3c 9ec8 9a3c 4091 b83c 8b43 54bc
000000c0: 6424 2fbc b138 373c 86f6 923c e48c debb
000000d0: 6a64 b23c 344b 593b dc88 c53c ad59 5b3c
000000e0: 0721 a33c 9c92 a23c e924 6a3c 6a08 d4bc
000000f0: 8df8 dd3c 4f9f edbc 14a1 5e3c a76e bfbc
00000100: cc63 8c3c 5bbe d53c 1fcd d23c 8069 b0bc
00000110: ec29 123c 41c5 0f3c 4f55 7fbc 6ae0 b53c
00000120: 8289 5b3c cd94 2dbb b5d4 48bc dc68 89bc
00000130: 4311 52bb ef81 703c 5929 23bc d8f4 f6bb
00000140: c3a4 16bc 5d9b e0bc 5d13 873b 8f3a c43c
00000150: 376b 4a3c 41da babb 59b4 a639 a1a2 f5bc
00000160: 1829 a73b 390b 55bc d679 abbb 3586 85bb
00000170: 1d8e 9fbc 2dab 7dbc 3d19 febb 7cc1 adbc
00000180: 00eb 65bc 8c1e 7e3b a02f f9bc 9eba cfbb
00000190: 8ac6 733c 13f6 61bc f758 113c b9ba d5bc
000001a0: ebb9 823b baca 3f3c 3496 ad3c 5da5 bd3c
000001b0: 06aa abbb 5305 9dbc c0a2 bb3c a8b4 88bc
000001c0: f076 aabc 67d5 aa3b e6aa 9c3c f59c a7bc
000001d0: 561e 59bc 4a2f 0dbc 3259 793b 6b33 cd3b
000001e0: ec6c dabb 98c7 88bc b4ab 98ba aa69 823c
000001f0: a563 383b e7cd 53bc 28db cabb 6a3b 6c3c
00000200: a4d6 953c fde0 42bc 2dde 9bba aaf9 1b3b
00000210: 3efb a53c ee05 313c b99e d3bc c6da be3c
00000220: e3be 45bc b41a a8bc cd60 c2ba 54e6 74bc
00000230: b5eb 1cbc d144 92bc 041d 01bc e868 a9bc
00000240: 05a3 92bc b467 34bc 65c6 a0bc 8018 c3bc
00000250: 17f5 adbc d89a 9bba b760 bc3c ddb4 dbba
00000260: da9a 12bc 556a 143c 53ba ee3b 087c 973c
00000270: 653e ab3c 6c9d 833b 19e2 79bb 9d5e 8f3c
00000280: 5f9e bfbc d1ef e8b9 be23 b93a fe52 d0bb
00000290: eb15 d6bc 15cb 803c bcd5 b8bc f267 82bb
000002a0: 5a07 c03b 93cf 083c 1e38 0c3b 1bd9 9abc
000002b0: 5b2e da3c 1350 6cbb 053e 6abc e817 f23b
000002c0: 3d0f 7ebc 99fe 763c aa31 b8bc c77f 443c
000002d0: bc77 85bc cf5a 61bc 866c babc f46d 52bc
000002e0: 6962 82bc 3e09 ab3c b3db 9d3b 19f9 88bc
000002f0: cf65 6d3b 00ee 98bc 5229 ac3c e87e 56bc
00000300: 18b5 6f3c 78dc 9fbc c058 57b8 0d61 713b
00000310: 9625 44bc c276 22ba 9636 92bc ddb5 3c3b
00000320: a108 e7bc 18af 33bb dc20 acbc 971b 3a38
00000330: 4629 a33c 80f1 79bc 0195 8d3c 2488 953c
00000340: 0e79 4d3c 679a 413c 7fe9 3f3c 3262 8c3c
00000350: a6c1 853a f96b 353c e731 62bc ff8d 10bd
00000360: 9aa2 a03c 9ccf 75bb cccd f83b 37a7 fcba
00000370: c736 a9bc d425 923c b8eb 89bc 70c9 e6b9
00000380: f3a7 5c3c cca6 693c 675f d0bc 0d51 8fbc
00000390: b851 843c d2bf 1a3a 1726 a0bc 9918 2d3c
000003a0: 43af 633c 64ef 8bbc a3b2 97bc 0703 c039
000003b0: 6d48 b93c f540 a63c 2a4d a4bc 1511 013c
000003c0: 5bc8 a63c 0401 25bb 9313 8cbb 2cb8 6ebc
000003d0: 9597 253c f825 12bc 13dd 7bbc 9584 233c
000003e0: a845 cb3c 86ef 8dbc ace9 b23c 044f cb3b
000003f0: fdb9 25bc c9b8 0c3c 8881 2fbc 84ce bcbc

layer1.bias f4 [32]
0.004023386 0.0020111164 -0.017785802 -0.011443316 -0.013282886 -0.001888304 -0.02376282 0.00060111383
0.02120813 0.014572827 -0.0105145 -0.017411636 -0.010327941 0.024478732 0.0044471235 -0.011909274
0.0143362945 0.00114171 0.015837027 -0.020847026 -0.012592328 -0.0033818665 -0.009047794 -0.01572068
0.027517796 0.015290985 0.004146847 -0.017238237 -0.021574313 -0.006491731 0.015852537 -0.025139136
00000000: 9cd6 833b efcc 033b 88b3 91bc bf7c 3bbc
00000010: 76a0 59bc f880 f7ba 3faa c2bc 1194 1d3a
00000020: acbc ad3c dec2 6e3c 0245 2cbc d9a2 8ebc
00000030: 8636 29bc 9f87 c83c 2db9 913b 1e1f 43bc
00000040: c7e2 6a3c 6ea5 953a a7bc 813c 62c7 aabc
00000050: 0d50 4ebc 4ea2 5dbb 333d 14bc a8c8 80bc
00000060: 006d e13c 0a87 7a3c 46e2 873b 3437 8dbc
00000070: 9dbc b0bc 96b8 d4bb 2edd 813c 97f0 cdbc

layernorm1.weight f4 [32]
0.9958378 1.093898 1.0137123 0.99169606 0.9738744 0.9987982 0.99880636 1.0038186
0.9987559 1.0081335 0.99262494 1.0081363 1.0259801 0.9990756 1.0040154 1.0118643
0.9988798 0.9971332 0.9736648 1.0230489 0.9954461 0.9960813 0.9936992 1.0186247
1.0118068 1.0394232 0.9988241 0.99607897 0.9968694 0.9994631 1.0078815 0.9902533
00000000: 3aef 7e3f da04 8c3f 53c1 813f cbdf 7d3f
00000010: d54f 793f 3db1 7f3f c6b1 7f3f 217d 803f
00000020: 77ae 7f3f 850a 813f ab1c 7e3f 9c0a 813f
00000030: 5153 833f 6bc3 7f3f 9483 803f c584 813f
00000040: 96b6 7f3f 1f44 7f3f 1942 793f 44f3 823f
00000050: 8ed5 7e3f 2fff 7e3f 1263 7e3f 4b62 823f
00000060: e382 813f d20b 853f f0b2 7f3f 08ff 7e3f
00000070: d532 7f3f d0dc 7f3f 4302 813f 3e81 7d3f

layernorm1.bias f4 [32]
-0.006747299 0.02935699 0.009310409 -5.894185e-05 0.019909836 -0.0042203185 -0.0025622186 -0.0011514642
-0.0054337825 0.0062818136 0.0026966045 0.008736073 0.05294017 -0.002976966 0.0029495894 0.00842568
-0.003398677 -0.0034576398 0.020173036 0.004308631 -0.012599272 -0.003326448 0.0003188174 0.012153635
0.028685432 0.021319328 -0.0028211004 -0.0035285854 -0.0032702696 0.009143526 0.008470457 -0.0066006384
00000000: 7218 ddbb 127e f03c b08a 183c 5438 77b8
00000010: f419 a33c 994a 8abb e5ea 27bb baec 96ba
00000020: df0d b2bb acd7 cd3b 84b9 303b bf21 0f3c
00000030: cbd7 583d 3419 43bb e64d 413b dd0b 0a3c
00000040: 57bc 5ebb 9299 62bb ec41 a53c 6b2f 8d3b
00000050: 2d6d 4ebc 8900 5abb f226 a739 0a20 473c
00000060: b6fd ea3c dfa5 ae3c 36e2 38bb d73f 67bb
00000070: 0552 56bb bace 153c acc7 0a3c 2b4a d8bb

blocks.0.fcn_layer.weight f4 [32, 32]
-0.109434985 0.102799974 -0.12331595 0.06646634 0.11846206 0.15702334 -0.15147778 0.09717276
0.04529287 -0.15587723 -0.08758351 -0.09385518 0.17838101 0.05434016 -0.120573714 -0.08993517
-0.16560988 -0.04294994 0.14576809 0.0076808264 0.14705674 0.006978619 -0.09923736 0.20107585
0.028257646 0.070680276 0.036229596 -0.16492611 -0.06730269 0.09737545 0.06484181 0.15839636
0.03385494 -0.18205127 -0.1332136 0.17569779 -0.0053528133 0.06829228 -0.006063545 0.11223159
-0.113623835 -0.022165745 -0.109872855 0.053488906 0.12372714 -0.05000176 -0.06904426 -0.009634269
-0.027528638 0.021907961 -0.09976352 -0.03621702 -0.028504753 -0.17507063 -0.15710376 0.01395112
0.032137226 0.019139752 0.07854264 -0.14365043 0.10984973 0.12382401 -0.053523105 -0.12822261
-0.13332325 0.07045367 0.17214909 0.12419708 0.017110035 0.11162371 0.16472854 -0.0735238
0.07604927 -0.1716891 -0.116289705 0.059190545 -0.009153815 -0.07675661 0.055087753 0.024494013
-0.16918483 0.089140765 -0.089079134 -0.019184416 -0.1258308 -0.036176514 -0.07102681 0.11050688
-0.08608026 0.08227296 -0.13837174 -0.15787578 -0.080486074 0.09237849 0.007953367 -0.05891065
0.108520605 -0.11454527 0.10954291 -0.095511496 0.058333788 -0.079654925 -0.055141635 0.13563329
-0.07678081 0.062666915 0.07429221 -0.12397569 0.07241738 0.11919233 0.08365064 0.09847404
-0.13934484 -0.13298188 0.08560832 -0.04215122 0.0579272 -0.058969337 -0.029803984 -0.13325696
-0.09006744 0.1143977 0.13448107 0.12668216 0.060645696 0.019235063 -0.040512037 0.14361414
-0.16123432 0.21256118 -0.0039826855 0.17258272 0.021458164 0.08106615 0.09496496 0.008281138
0.17774612 -0.04691005 0.041750107 0.009215737 -0.016046697 -0.14479251 -0.1575989 -0.07751468
-0.13268219 0.10235504 0.13781998 -0.086824015 -0.06431516 0.014614797 0.071106456 0.13765872
-0.12333848 -0.047044687 -0.07457062 0.022354672 0.15980303 0.18779376 0.013297586 0.14826073
-0.10921541 -0.103456266 -0.18599737 0.029154178 -0.017742552 0.095291644 -0.034224212 -0.1738759
-0.11821655 0.17161126 0.017520398 0.021420455 -0.06369495 0.08905367 -0.02613245 0.06377091
-0.022121707 -0.09652278 -0.06413189 0.12754363 -0.055464145 -0.040128633 0.15112886 -0.17853996
0.121242784 0.0495202 0.082218744 0.05392812 0.11640994 0.10730701 -0.02387285 -0.07357884
-0.09431873 0.23088442 0.105859786 0.16240256 0.04607886 0.023582263 0.032032643 0.1561943
0.07781597 0.12610242 0.07238767 -0.030842157 -0.07517203 -0.06586532 0.16460852 0.06272595
-0.14191385 -0.018045114 -0.050123658 -0.13064484 -0.15388063 -0.06422928 -0.0053241844 -0.07836365
0.1977963 -0.057245616 -0.026576588 0.034997452 -0.10083464 0.0912339 0.19958511 -0.0014051559
-0.1763753 -0.090515025 -0.18491535 0.18146479 -0.13965738 0.089828625 0.01609441 -0.013511216
0.14495689 0.07207773 0.15867676 0.10179267 -0.05145128 -0.17034708 -0.031442918 -0.10313513
-0.08315474 -0.15207872 -0.051868334 -0.056424085 0.10362019 -0.0694035 0.023730604 -0.09720646
0.030748436 0.11242261 0.12453562 0.1374046 -0.10013866 -0.109148115 0.090527214 0.1640107
00000000: 731f e0bd cb88 d23d 138d fcbd 811f 883d
00000010: 3d9c f23d baca 203e fe1c 1bbe 8302 c73d
00000020: 0485 393d 489e 1fbe fc5e b3bd 2537 c0bd
00000030: 83a9 363e ca93 5e3d 5aef f6bd ee2f b8bd
00000040: a395 29be 47ec 2fbd 3b44 153e 71af fb3b
00000050: 0b96 163e e6ac e43b f53c cbbd d4e6 4d3e
00000060: 947c e73c d2c0 903d 7c65 143d 64e2 28be
00000070: fed5 89bd c86c c73d c8cb 843d a832 223e
00000080: 7aab 0a3d a66b 3abe 2569 08be 1fea 333e
00000090: a766 afbb d3dc 8b3d b4b0 c6bb add9 e53d
000000a0: 9db3 e8bd f094 b5bc 0505 e1bd 2f17 5b3d
000000b0: a864 fd3d a5ce 4cbd 1467 8dbd 0ed9 1dbc
000000c0: bd83 e1bc 5378 b33c d150 ccbd 4c58 14bd
000000d0: cd82 e9bc b745 33be cfdf 20be 3d93 643c
000000e0: 53a2 033d f8ca 9c3c f7da a03d 1919 13be
000000f0: e5f8 e03d 7197 fd3d 0b3b 5bbd ca4c 03be
00000100: e485 08be 044a 903d da47 303e 0a5b fe3d
00000110: 582a 8c3c f99a e43d 99ae 283e a593 96bd
00000120: b8bf 9b3d 44cf 2fbe 4c29 eebd c971 723d
00000130: e2f9 15bc 9232 9dbd b2a3 613d aba7 c83c
00000140: ca3e 2dbe 6f8f b63d 1f6f b6bd a328 9dbc
00000150: cad9 00be d32d 14bd 8176 91bd 6e51 e23d
00000160: d94a b0bd ba7e a83d 52b1 0dbe 30aa 21be
00000170: e2d5 a4bd ef30 bd3d d74e 023c 4b4c 71bd
00000180: 0d40 de3d b696 eabd 0858 e03d 889b c3bd
00000190: 69ef 6e3d 1f22 a3bd 32dc 61bd 74e3 0a3e
000001a0: 423f 9dbd 8357 803d 8426 983d f7e6 fdbd
000001b0: 904f 943d 1c1b f43d 0751 ab3d c2ac c93d
000001c0: 6ab0 0ebe 672c 08be 6a53 af3d c2a6 2cbd
000001d0: 1245 6d3d d589 71bd 7c27 f4bc 8374 08be
000001e0: 4775 b8bd 5749 ea3d 68b5 093e f8b8 013e
000001f0: 9f67 783d da92 9d3c f3ef 25bd 960f 133e
00000200: 9c1a 25be a3a9 593e 3081 82bb 86b9 303e
00000210: 08c9 af3c 0206 a63d fd7c c23d 9cad 073c
00000220: 1403 363e c124 40bd 2902 2b3d 9afd 163c
00000230: 5d74 83bc 7d44 14be 9b61 21be 04c0 9ebd
00000240: d7dd 07be 859f d13d ae20 0d3e cad0 b1bd
00000250: abb7 83bd e772 6f3c 43a0 913d 68f6 0c3e
00000260: e398 fcbd eeb1 40bd 7bb8 98bd 2521 b73c
00000270: 68a3 233e 024d 403e 1ede 593c a9d1 173e
00000280: 54ac dfbd e1e0 d3bd 1876 3ebe bed4 ee3c
00000290: d458 91bc 4428 c33d b02e 0cbd 860c 32be
000002a0: 851b f2bd ddba 2f3e f086 8f3c f379 af3c
000002b0: 7f72 82bd c561 b63d b813 d6bc 539a 823d
000002c0: 9538 b5bc bcad c5bd 9557 83bd cc9a 023e
000002d0: 5f2e 63bd ec5d 24bd 86c1 1a3e 2ed3 36be
000002e0: 234e f83d b1d5 4a3d 4d62 a83d bbe3 5c3d
000002f0: 5668 ee3d c7c3 db3d ff90 c3bc 81b0 96bd
00000300: 2e2a c1bd f76c 6c3e 04cd d83d db4c 263e
00000310: 30bd 3c3d 972f c13c a934 033d 66f1 1f3e
00000320: fb5d 9f3d fe20 013e fd3f 943d b1a8 fcbc
00000330: cbf3 99bd 66e4 86bd 238f 283e 7676 803d
00000340: dd51 11be 59d3 93bc 774e 4dbd c3c7 05be
00000350: e292 1dbe a48a 83bd 7f76 aebb 1f7d a0bd
00000360: 1d8b 4a3e 617a 6abd 25b7 d9bc 7d59 0f3d
00000370: 6482 cebd d7d8 ba3d 0a60 4c3e 352d b8ba
00000380: ba9b 34be f15f b9bd 735a 3dbe e8d1 393e
00000390: 5802 0fbe 12f8 b73d 6dd8 833c 265e 5dbc
000003a0: 946f 143e 7d9d 933d 297c 223e ad78 d03d
000003b0: 94be 52bd 776f 2ebe 4aca 00bd 8338 d3bd
000003c0: 084d aabd 86ba 1bbe e473 54bd f11c 67bd
000003d0: d236 d43d 6c23 8ebd af66 c23c 2e14 c7bd
000003e0: 25e4 fb3c d33d e63d 880c ff3d cbb3 0c3e
000003f0: 7f15 cdbd 0c89 dfbd 5566 b93d 6cf2 273e

blocks.0.fcn_layer.bias f4 [32]
-0.05886349 -0.15662232 0.034384664 -0.09151759 -0.009350353 -0.10477075 -0.104090706 0.05317557
-0.12611002 0.054274637 0.122352675 -0.031204822 0.07220058 -0.090647355 0.16856113 0.13087583
0.06107969 -0.08100685 0.04393392 -0.04309397 0.15316834 0.056091033 0.09772428 -0.19680104
0.1108967 -0.1434647 -0.14196469 0.038450625 0.13690308 -0.11983849 0.000821354 0.02127168
00000000: d81a 71bd 9a61 20be efd6 0c3d 936d bbbd
00000010: 3932 19bc 0c92 d6bd 822d d5bd a0ce 593d
00000020: fc22 01be 154f 5e3d 0a94 fa3d 41a1 ffbc
00000030: e6dd 933d 52a5 b9bd 4a9b 2c3e 5004 063e
00000040: b22e 7a3d ebe6 a5bd 0ef4 333d 4d83 30bd
00000050: 29d8 1c3e b6bf 653d ab23 c83d 3686 49be
00000060: cf1d e33d 69e8 12be 315f 11be 677e 1d3d
00000070: 5230 0c3e e26d f5bd 2250 573a f241 ae3c

blocks.0.layer_norm.weight f4 [32]
1.3235929 1.0790719 1.2196527 0.99523604 1.2438439 1.0202038 1.3634561 0.9982906
1.0027426 1.0148559 1.0354844 1.0806291 0.9990945 1.0033722 1.0147934 1.0223799
0.9962771 1.0043988 1.0103633 1.0023736 1.2076 1.0095534 0.9978146 1.3977753
1.2889214 0.9976063 0.99691397 1.2461176 1.2593281 0.9903608 1.0043892 1.25671
00000000: 7e6b a93f 071f 8a3f 941d 9c3f cac7 7e3f
00000010: 4736 9f3f 0a96 823f bb85 ae3f f98f 7f3f
00000020: df59 803f cce6 813f c18a 843f 0e52 8a3f
00000030: a8c4 7f3f 806e 803f c0e4 813f 58dd 823f
00000040: 040c 7f3f 2490 803f 9653 813f c74d 803f
00000050: a392 9a3f 0c39 813f c770 7f3f 4dea b23f
00000060: 60fb a43f 2063 7f3f c135 7f3f c880 9f3f
00000070: aa31 a13f 4988 7d3f d38f 803f e0db a03f

blocks.0.layer_norm.bias f4 [32]
0.281726 0.08163735 0.23920038 -0.0014317452 0.2521818 0.011449692 0.30228722 -0.0034243222
0.004782833 0.011767246 0.015027521 0.07058582 -0.0025233782 0.012188466 0.011500242 0.021573713
-0.004272733 0.0019228142 0.012584476 -0.0023235362 0.23388375 0.008585451 0.0064899046 0.31423232
0.27069488 -0.0031419583 -0.0037013975 0.25439066 0.25710616 -0.0053047216 0.005286771 0.25801855
00000000: 643e 903e 7c31 a73d f2f0 743e 66a9 bbba
00000010: f91d 813e 7d97 3b3c 64c5 9a3e 986a 60bb
00000020: 50b9 9c3b 68cb 403c fe35 763c 4c8f 903d
00000030: 435f 25bb 22b2 473c 836b 3c3c 5bbb b03c
00000040: 4802 8cbb f006 fc3a 1e2f 4e3c 7846 18bb
00000050: 397f 6f3e fea9 0c3c 44a9 d43b 0fe3 a03e
00000060: 8598 8a3e 50e9 4dbb 2593 72bb 7e3f 823e
00000070: 6ba3 833e 3bd3 adbb a63c ad3b 021b 843e

last_layer.weight f4 [1, 32]
-0.3263165 0.073790684 -0.33017376 0.008436953 -0.30607852 0.065929025 -0.337753 0.038086887
0.052239653 0.018633388 0.044901866 0.22742829 0.08898106 0.12979785 0.09656281 0.17416675
0.075926095 0.01947017 0.015946226 0.12750216 -0.33692116 0.10617883 -0.015887514 -0.3427937
-0.2984238 0.010507928 0.0676828 -0.2923104 -0.3047342 -0.06195056 -0.1434337 -0.29656067
00000000: f512 a7be 921f 973d 890c a9be 253b 0a3c
00000010: 53b6 9cbe cc05 873d f6ed acbe ff00 1c3d
00000020: 3ff9 553d 0ca5 983c 05eb 373d f6e2 683e
00000030: b43b b63d bae9 043e b9c2 c53d c558 323e
00000040: 247f 9b3d e87f 9f3c a9a1 823c ed8f 023e
00000050: ee80 acbe 4974 d93d 8826 82bc a882 afbe
00000060: 01cb 98be 7229 2c3c 489d 8a3d b5a9 95be
00000070: 1f06 9cbe dfbf 7dbd 49e0 12be cdd6 97be
